DQN/Mountain Car/dqn_model.pth (torch, 54691 bytes, 8 tensors)

fc1.weight f4 [128, 2]
0.41832304 -1.1807388 -0.4829591 -1.2037289 -0.22836995 1.6230633 -0.7044148 0.3109042
-0.7696802 0.06448043 0.06936264 -0.17284387 0.058414962 1.866837 0.17078692 2.7486596
0.5006904 -0.22248563 0.31397194 -0.48577395 -0.216412 -0.4514238 0.34081265 1.8951751
0.33528307 1.6224445 0.5724067 -0.70804393 0.1948638 -0.9715608 0.23935407 -0.45498896
0.6099208 -0.7761637 -0.16495696 0.92784 0.3125912 1.5499393 -0.39405188 -0.04518354
-0.14944617 -4.585959 0.0087016225 -0.08003831 0.3736276 -0.6292414 -0.53706694 -2.2332194
-0.5920787 -0.8003563 -0.03549125 -0.29512534 0.23521322 0.29503506 0.044990897 -0.49852076
0.005947878 -0.83095413 -0.04626926 1.7639333 0.51846 -0.6854046 -0.089491725 -0.54908156
-0.5970594 -0.69659275 -0.8053117 -0.9383224 -0.25416234 -0.26903582 -0.65121424 -0.6518595
-0.41535026 -2.3972359 0.26605964 0.3090821 0.10342635 1.9486575 0.55455023 -0.48771244
0.35337943 -0.6416937 -0.4844469 -2.075227 -0.67545897 -1.61754 -0.26659262 -0.32843408
0.051628944 1.6869506 0.5255627 1.8692372 -0.75871074 -0.8290106 -0.42524722 -0.54615456
0.42059058 2.253324 0.014589131 -0.30424342 0.5903765 -0.958691 0.22636284 -0.5823606
-0.5605381 -1.1750982 -0.52637035 -0.79520583 -0.33302113 -0.89728016 -0.03456214 1.839851
0.13316327 -0.026144385 -0.5933729 -0.21333918 -0.65948254 0.23079321 -0.5810657 -3.000957
-0.21719246 -0.6032309 0.5932724 -0.0056546926 -0.59420156 -0.4402621 0.63426095 0.12661666
0.37150618 -1.1949613 -0.40278286 -1.3820815 -0.5705788 -0.036260545 -0.75949 -0.89612347
0.49905342 0.06347257 -0.28916076 -0.19656621 -0.07515441 0.11353814 -0.43974987 -1.0800568
-0.46806133 0.009894156 -0.3206197 -3.3381524 -0.7371206 -0.31636056 -0.61335987 -0.44904086
0.3770421 0.4398957 0.35397536 -0.86075956 -0.8498998 0.9286626 -0.0066438084 1.1819342
0.28039837 0.24888432 0.053303897 0.45070714 -0.15193179 -2.5482986 -0.78182155 -0.21748374
-0.50711244 -0.25879705 -0.20247157 -2.5033677 0.39706442 1.8804995 0.1899016 -1.1949693
-0.50037307 -0.72212666 -0.26565775 -0.1915116 0.27380985 0.12916768 -0.64778435 -0.6285185
-0.47523397 -2.12258 0.16230305 1.1320926 -0.33941594 -1.0530767 -0.32695806 -0.53615016
0.5109429 0.5485514 -0.26175627 1.3324753 -0.54143983 -3.6113334 0.8189064 1.0472851
0.5788596 -0.031928062 -0.4675653 0.7618213 -0.70289636 -1.8002878 -0.6142602 -3.4966135
0.684549 0.619861 -0.069289275 1.2510437 -0.5681792 -1.855212 0.06525952 0.31266978
-0.62647146 1.0827116 0.24889386 1.7609863 0.24047561 -1.2704376 0.6991258 -0.30953902
0.5070881 1.8398823 0.5546339 -0.1435669 -0.41483325 0.78689 -0.4616027 -1.2256279
-0.22391364 0.4000736 -0.86745304 -2.3643007 -0.7249663 -3.4334023 -0.08239071 -1.4510124
-0.12876701 -1.6066601 -0.6374076 -1.3214546 -0.38973773 1.0946666 -0.00612365 -1.0121677
0.55181617 0.10826802 -0.08616179 0.117611885 0.43929058 -0.42007744 -0.66548103 -1.6539568
00000000: 702e d63e 7322 97bf 6a46 f7be ca13 9abf
00000010: d0d9 69be 8ac0 cf3f 8754 34bf d62e 9f3e
00000020: c309 45bf 510e 843d 000e 8e3d fcfd 30be
00000030: 8744 6f3d 84f4 ee3f c4e2 2e3e 0aea 2f40
00000040: 3f2d 003f 46d3 63be eec0 a03e 5db7 f8be
00000050: 1b9b 5dbe 0521 e7be ff7e ae3e 1995 f23f
00000060: 39aa ab3e 43ac cf3f 3f89 123f 5e42 35bf
00000070: 608a 473e 35b8 78bf 3c19 753e 50f4 e8be
00000080: c523 1c3f aab2 46bf 7aea 28be ec86 6d3f
00000090: f40b a03e 6964 c63f 2bc1 c9be 6012 39bd
000000a0: 6b08 19be 2dc0 92c0 4091 0e3c 20eb a3bd
000000b0: 1e4c bf3e f715 21bf 387d 09bf 11ed 0ec0
000000c0: 7892 17bf 27e4 4cbf 465f 11bd ab1a 97be
000000d0: bcdb 703e d60e 973e 6048 383d 1d3e ffbe
000000e0: 6be6 c23b 69b9 54bf d684 3dbd 91c8 e13f
000000f0: cbb9 043f ad76 2fbf 7047 b7bd 9c90 0cbf
00000100: e3d8 18bf e753 32bf e828 4ebf e635 70bf
00000110: 9121 82be 10bf 89be fab5 26bf 44e0 26bf
00000120: caa8 d4be 506c 19c0 f838 883e 0240 9e3e
00000130: 32d1 d33d 9c6d f93f 01f7 0d3f 72b5 f9be
00000140: 26ee b43e 0a46 24bf 6d09 f8be 85d0 04c0
00000150: e1ea 2cbf 8d0b cfbf d47e 88be 8328 a8be
00000160: df78 533d ffed d73f 478b 063f 2a43 ef3f
00000170: de3a 42bf 0a3a 54bf 01ba d9be c9d0 0bbf
00000180: a657 d73e 7636 1040 4007 6f3c cbc5 9bbe
00000190: ea22 173f c66c 75bf a9cb 673e 9615 15bf
000001a0: 6d7f 0fbf 9e69 96bf 35c0 06bf 9c92 4bbf
000001b0: bf81 aabe 27b4 65bf 0891 0dbd 3d80 eb3f
000001c0: f45b 083e c02c d6bc 49e7 17bf 9675 5abe
000001d0: d9d3 28bf 0e55 6c3e b9c0 14bf ae0f 40c0
000001e0: b367 5ebe 576d 1abf b3e0 173f 004b b9bb
000001f0: 981d 18bf 096a e1be ed5e 223f cca7 013e
00000200: 0f36 be3e 7ef4 98bf 8e39 cebe 0ce8 b0bf
00000210: 7411 12bf f085 14bd f06d 42bf 5968 65bf
00000220: ee83 ff3e e8fd 813d e10c 94be a748 49be
00000230: 8eea 99bd af86 e83d e526 e1be 4d3f 8abf
00000240: bca5 efbe 191b 223c 4428 a4be 4aa4 55c0
00000250: f0b3 3cbf 03fa a1be 2705 1dbf afe8 e5be
00000260: aa0b c13e 023a e13e 423c b53e bd5a 5cbf
00000270: 0993 59bf d5bc 6d3f 4eb4 d9bb 9f49 973f
00000280: 6090 8f3e 88db 7e3e 3055 5a3d 16c3 e63e
00000290: 0294 1bbe 5317 23c0 7525 48bf 0fb4 5ebe
000002a0: 1fd2 01bf 0c81 84be b554 4fbe 2d37 20c0
000002b0: 074c cb3e 35b4 f03f 9175 423e c1f4 98bf
000002c0: 7318 00bf 4bdd 38bf 4b04 88be 9e1b 44be
000002d0: ce30 8c3e 8844 043e 32d5 25bf 97e6 20bf
000002e0: de51 f3be 5ad8 07c0 c532 263e 69e8 903f
000002f0: edc7 adbe 38cb 86bf 0c67 a7be 2341 09bf
00000300: 27cd 023f dd6d 0c3f eb04 86be 8d8e aa3f
00000310: cd9b 0abf 1620 67c0 daa3 513f 700d 863f
00000320: 2530 143f 00c7 02bd b864 efbe b906 433f
00000330: 04f1 33bf d56f e6bf 2840 1dbf 84c8 5fc0
00000340: 9a3e 2f3f 36af 1e3f 89e7 8dbd 3322 a03f
00000350: 3174 11bf 9677 edbf c9a6 853d 4116 a03e
00000360: 6f60 20bf 4b96 8a3f 08de 7e3e 0068 e13f
00000370: 3d3f 763e b39d a2bf e9f9 323f e67b 9ebe
00000380: 87d0 013f 4381 eb3f 7dfc 0d3f 3403 13be
00000390: 0665 d4be 9f71 493f 3057 ecbe 60e1 9cbf
000003a0: 9e49 65be 72d6 cc3e 6711 5ebf b450 17c0
000003b0: 6497 39bf ddbc 5bc0 76bc a8bd c6ba b9bf
000003c0: 80db 03be 0aa7 cdbf 252d 23bf 6d25 a9bf
000003d0: b48b c7be 091e 8c3f e6a8 c8bb b68e 81bf
000003e0: d343 0d3f a0bb dd3d 9875 b0bd 80de f03d
000003f0: b2ea e03e 6414 d7be f75c 2abf dbb4 d3bf

fc1.bias f4 [128]
-0.0072318646 -0.050741684 0.32498607 0.50366133 0.6474844 -0.56354916 -0.022165531 -0.06543309
-0.7006775 -0.50373435 0.24641839 0.064130984 0.4711046 0.43347374 0.1884374 -0.2657568
0.39406076 0.47202545 0.46027878 -0.65971637 0.112468794 -0.6638703 -0.2855952 0.30616027
0.3128506 0.10352598 -0.4939389 -0.3087758 0.40366188 0.3438534 -0.615297 -0.4884404
0.5793301 0.09734793 -0.38784853 0.33645207 0.23464188 -0.532535 0.13067634 -0.35753727
-0.36127266 -0.3656379 0.38715693 0.25121972 0.21994086 -0.003446122 0.393785 0.25755128
0.27752894 -0.19897115 0.29368794 0.3529506 0.31429577 0.35895494 -0.30790538 0.19133607
-0.33241606 0.54079205 0.64537084 -0.084392756 0.21504489 -0.53811723 0.66424716 -0.48825014
0.6825889 0.22833267 -0.7023495 -0.53392744 -0.38250506 0.37110305 0.19550037 0.60852015
0.47383973 0.08925537 0.37164155 0.5329537 -0.55026025 0.22318737 0.30423066 0.38785273
-0.5417941 -0.056997895 0.103452414 0.5807602 -0.46406686 0.12899546 0.58191466 0.49205467
-0.23550084 -0.33061123 -0.67075384 0.3779526 0.2670085 0.5566623 0.7071315 0.21444814
-0.397236 0.3464157 -0.4363933 0.035496686 -0.47874075 0.65424544 -0.36496663 -0.32705176
-0.037403125 0.09860055 0.32032248 0.48716003 0.24122189 0.6075218 0.22723049 -0.5392417
0.5996511 -0.29605532 0.20050132 0.26648203 -0.6417193 -0.62278974 -0.44749492 0.16254526
0.085921265 -0.11652364 0.073778816 0.20283934 -0.3749113 -0.4412929 0.6135631 0.047341328
00000000: 47f9 ecbb 83d6 4fbd 9364 a63e f3ef 003f
00000010: 8ac1 253f c244 10bf 7d94 b5bc c901 86bd
00000020: 9a5f 33bf bcf4 00bf 1a55 7c3e 1b57 833d
00000030: 9f34 f13e 45f0 dd3e bcf5 403e 4611 88be
00000040: 55c2 c93e 52ad f13e a9a9 eb3e 2ce3 28bf
00000050: 0a56 e63d 67f3 29bf 8939 92be 0ac1 9c3e
00000060: f42d a03e 6e05 d43d 8fe5 fcbe dd17 9ebe
00000070: c5ac ce3e 8e0d b03e 1b84 1dbf dc14 fabe
00000080: fa4e 143f 5a5e c73d 1594 c6be 7243 ac3e
00000090: f645 703e 3754 08bf 05d0 053e 200f b7be
000000a0: bbf8 b8be e434 bbbe 6f39 c63e df9f 803e
000000b0: 2d38 613e 55d8 61bb 309e c93e c3dd 833e
000000c0: 4618 8e3e 18bf 4bbe 445e 963e f1b5 b43e
000000d0: 60eb a03e f1c8 b73e c6a5 9dbe 9aed 433e
000000e0: 7032 aabe 5971 0a3f 0637 253f 1cd6 acbd
000000f0: ba34 5c3e 0dc2 09bf 1a0c 2a3f ecfb f9be
00000100: 25be 2e3f 0ad0 693e 2dcd 33bf 78af 08bf
00000110: b4d7 c3be 3801 be3e 4031 483e fac7 1b3f
00000120: 1f9b f23e 85cb b63d cd47 be3e a76f 083f
00000130: dbdd 0cbf 3b8b 643e 1fc4 9b3e a294 c63e
00000140: 05b3 0abf a076 69bd dcde d33d b3ac 143f
00000150: 2c9a edbe 6317 043e 5cf8 143f 97ee fb3e
00000160: 2227 71be e045 a9be 86b6 2bbf 0183 c13e
00000170: 57b5 883e 6c81 0e3f 9206 353f 4b98 5b3e
00000180: 8462 cbbe 665d b13e f16e dfbe f964 113d
00000190: 821d f5be a17c 273f e8dc babe 5473 a7be
000001a0: 0534 19bd 16ef c93d 4f01 a43e 0a6d f93e
000001b0: df02 773e 8c86 1b3f 1caf 683e be0b 0abf
000001c0: bc82 193f 9094 97be 3850 4d3e 5570 883e
000001d0: b747 24bf 266f 1fbf 0e1e e5be 4472 263e
000001e0: 7df7 af3d f2a3 eebd 5919 973d 1eb5 4f3e
000001f0: 60f4 bfbe 25f1 e1be 7912 1d3f fbe8 413d

fc2.weight f4 [64, 128]
0.51231784 -0.2639444 -0.061107356 -0.083233766 -0.03485949 0.03399393 -1.178169 -1.7614353
0.02045215 -0.030912656 0.09031442 -0.18016437 -0.072202094 -0.062854886 0.01659085 0.079106234
0.06525953 -0.084022105 0.0024501907 -0.0223402 -2.899555 0.06735312 -0.032749522 0.067890406
0.045198273 -0.05967935 -0.042013515 -0.040166903 0.01513049 -0.09301896 0.0698932 0.034167238
0.061703518 -0.12559548 0.06529214 -0.018150724 0.1958451 0.018394478 -0.01953977 0.056777395
-0.07285088 0.014304228 0.20197292 -0.053795286 -0.060214143 -0.24580474 0.032338537 -0.0072149048
-0.058865525 -0.060064126 0.012435214 -0.09895523 0.01741366 0.05669714 0.06613041 0.003564806
-0.054973092 0.04201881 0.020322563 -0.32064766 0.09282683 -0.048690356 0.052330103 0.07187811
0.04731139 0.057678852 -0.06804655 -0.08276848 -0.028949857 0.046229284 -0.027728328 0.07808807
0.038462326 -1.0473224 0.047578067 -0.008780158 0.085070886 -0.005032142 -0.3710666 -0.10987086
-0.078884676 -0.054566428 0.42706186 0.017299285 -0.05963031 0.39917383 0.01945693 -0.04338152
-0.22678207 0.0023711473 -0.040429015 0.033751503 0.2369442 0.0008782531 0.076374345 0.021013094
0.029885128 -0.06648359 -0.04328659 0.17204106 0.07962542 -0.095043026 -0.22920921 -1.2456213
0.14622162 0.0070279683 0.16721709 0.056961 -0.48139998 -0.10392421 0.05395886 0.086764954
-0.004115211 0.028861739 -0.026115263 0.0005935898 0.0791525 -0.034705453 -1.0376549 0.17130454
0.06605939 0.34640947 0.7471699 0.089591295 -0.08361866 0.027700983 0.002193969 -0.29056233
-0.1137681 -0.10886677 0.05244948 0.080625385 0.06725936 0.022023812 0.36137938 0.26265946
-0.026694361 -0.008044846 0.014428977 0.06285811 0.0090043405 0.08002599 0.06981254 -0.08570455
0.09800755 0.03169253 0.02449267 0.01087743 -0.54341716 -0.027250718 0.041941367 0.11109872
0.09772557 -0.04366178 -0.022694468 -0.06942586 0.0446851 0.014562879 0.0040754974 0.056207396
0.10538246 -0.058801677 0.082329206 0.123799235 0.0857459 0.06540743 0.23552473 0.010880187
0.06732326 -0.23558621 0.10466091 0.01632894 0.12044088 -0.13586816 0.1463412 0.15980205
0.03966018 0.020872317 -0.05664009 0.082746044 0.15923028 0.016054517 0.33256364 0.18907654
0.03599663 0.051811203 0.11652012 0.051978163 -0.023246706 0.08144944 0.06928432 -0.056918874
0.06483475 0.10221612 0.04025408 0.003044234 -0.02361311 0.11597013 0.045801643 0.08758727
0.06619884 -0.33163163 0.18960012 0.15890683 -0.07678929 0.11744197 -0.23678426 0.068580195
-0.020067938 -0.003543444 0.2578507 0.05412237 0.2756123 0.16695401 0.14612046 -0.04406869
0.090670094 0.074948914 0.061150275 0.077654175 0.20226485 0.022855291 0.05253229 0.13903478
-0.08641948 0.1615204 -0.3149721 -0.11449385 0.0030264184 0.09092115 0.10032799 -0.15255858
-0.16085161 0.12074549 0.12656327 0.12951128 -0.38971767 0.11302835 0.047926012 0.048765697
0.03851204 0.022350028 0.102373 0.17859226 0.051885955 0.08285358 -0.22127888 0.0020870368
0.2162826 0.28429008 0.28687975 0.09396189 -0.068898655 -0.030053042 0.057392724 -0.30082685
00000000: 4327 033f b823 87be b54b 7abd 7776 aabd
00000010: d3c8 0ebd 383d 0b3d 3ece 96bf b676 e1bf
00000020: 448b a73c 8a3c fdbc c4f6 b83d 027d 38be
00000030: b1de 93bd 10ba 80bd 89e9 873c 7302 a23d
00000040: caa6 853d c813 acbd 6193 203b cc02 b7bc
00000050: 4f92 39c0 6ff0 893d 5d24 06bd 200a 8b3d
00000060: d321 393d 5672 74bd 5d16 2cbd 0d86 24bd
00000070: e0e5 773c b980 bebd 2b24 8f3d f2f2 0b3d
00000080: d4bc 7c3d 1a9c 00be e3b7 853d d4b0 94bc
00000090: 9e8b 483e 04b0 963c de11 a0bc 6a8f 683d
000000a0: d832 95bd 485c 6a3c fdd1 4e3e 7258 5cbd
000000b0: 1ba3 76bd 3db4 7bbe 6a75 043d 026b ecbb
000000c0: fa1c 71bd cd05 76bd 11bd 4b3c 0aa9 cabd
000000d0: 18a7 8e3c 433b 683d 616f 873d 859f 693b
000000e0: 772b 61bd ea1b 2c3d 817b a63c ee2b a4be
000000f0: fe1b be3d 8a6f 47bd 1758 563d d534 933d
00000100: 97c9 413d a940 6c3d fd5b 8bbd 8582 a9bd
00000110: 4028 edbc eb5a 3d3d 8526 e3bc a3ec 9f3d
00000120: ac8a 1d3d a90e 86bf 38e1 423d a7da 0fbc
00000130: a539 ae3d abe4 a4bb 71fc bdbe f903 e1bd
00000140: 4a8e a1bd 0c81 5fbd daa7 da3e 3bb7 8d3c
00000150: e93e 74bd 8360 cc3e 2464 9f3c d2b0 31bd
00000160: 8f39 68be 4065 1b3b e598 25bd 043f 0a3d
00000170: 80a1 723e 913a 663a 276a 9c3d a723 ac3c
00000180: a8d1 f43c 8c28 88bd 484d 31bd 882b 303e
00000190: a712 a33d eba5 c2bd d2b5 6abe 8570 9fbf
000001a0: 1fbb 153e df4a e63b f53a 2b3e f04f 693d
000001b0: 0f7a f6be 37d6 d4bd f703 5d3d d3b1 b13d
000001c0: e4d8 86bb 746f ec3c adef d5bc 239b 1b3a
000001d0: b51a a23d 4e27 0ebd e0d1 84bf 756a 2f3e
000001e0: 254a 873d 955c b13e 8746 3f3f a47b b73d
000001f0: 4340 abbd 2ced e23c b1c8 0f3b 96c4 94be
00000200: 40ff e8bd 8bf5 debd 44d5 563d ec1e a53d
00000210: 46bf 893d 486b b43c b806 b93e 4d7b 863e
00000220: 22ae dabc 88ce 03bc 8467 6c3c c1bb 803d
00000230: f186 133c abe4 a33d e1f9 8e3d de85 afbd
00000240: 2fb8 c83d 07d0 013d daa4 c83c 4037 323c
00000250: 631d 0bbf e63c dfbc b6ca 2b3d ba87 e33d
00000260: 5824 c83d b2d6 32bd c0e9 b9bc 252f 8ebd
00000270: b907 373d 2499 6e3c c08b 853b ba39 663d
00000280: c2d2 d73d 07da 70bd 379c a83d 748a fd3d
00000290: 8c9b af3d 55f4 853d 652d 713e d042 323c
000002a0: c7e0 893d 833d 71be 7658 d63d 45c4 853c
000002b0: b5a9 f63d 0621 0bbe 78da 153e 26a3 233e
000002c0: b772 223d 6cfc aa3c 70ff 67bd c276 a93d
000002d0: 430d 233e c384 833c c845 aa3e 489d 413e
000002e0: 3471 133d fc37 543d 1aa2 ee3d 0ee7 543d
000002f0: e06f bebc f7ce a63d f0e4 8d3d c423 69bd
00000300: 15c8 843d af56 d13d 76e1 243d c581 473b
00000310: 4870 c1bc bf81 ed3d 819a 3b3d f460 b33d
00000320: 4293 873d 9fcb a9be 8926 423e 79b8 223e
00000330: b443 9dbd 6a85 f03d 9377 72be c673 8c3d
00000340: 8465 a4bc 2039 68bb 0205 843e 6baf 5d3d
00000350: 0e1d 8d3e fef5 2a3e 9aa0 153e 5f81 34bd
00000360: 3eb1 b93d d17e 993d b678 7a3d 2709 9f3d
00000370: 841e 4f3e 053b bb3c 192c 573d 225f 0e3e
00000380: b2fc b0bd 9b65 253e 0644 a1be c07b eabd
00000390: e056 463b de34 ba3d c378 cd3d 5138 1cbe
000003a0: 49b6 24be 6949 f73d cd99 013e 9b9e 043e
000003b0: 1389 c7be 687b e73d 114e 443d 8abe 473d
000003c0: cdbe 1d3d 6817 b73c efa8 d13d e4e0 363e
000003d0: 5e86 543d 23af a93d ee96 62be abc6 083b
000003e0: 3079 5d3e 788e 913e e7e1 923e 176f c03d
000003f0: bd1a 8dbd cc31 f6bc a214 6b3d fa05 9abe

fc2.bias f4 [64]
0.03815277 -0.0066352305 -0.06199608 0.07067983 0.07255867 0.09213543 -0.033246174 0.08941589
-0.08244128 0.11709543 -0.030463614 0.096788056 0.056406207 -0.051646918 -0.023293216 0.04761336
-0.08149622 0.035505842 -0.02617496 0.04313118 0.028803349 0.01633875 -0.08333042 0.10634879
-0.07163974 0.093196794 0.06438156 -0.083291516 0.050630767 -0.069965415 0.031295247 -0.08461283
0.011714125 0.067616954 0.017746337 0.018718027 -0.08365898 -0.063474976 0.05519179 -0.050013516
0.049456414 0.08454242 0.1100312 -0.042986434 0.058973588 0.062172763 0.0012910143 0.09830108
0.023939313 0.057350665 0.030072361 0.04058256 0.036527783 0.02995702 0.0471762 0.038320255
-0.035999663 -0.052823383 -0.067364894 -0.045940455 -0.06249004 -0.0027407748 -0.06505878 0.026773086
00000000: 1446 1c3d 596c d9bb 9aef 7dbd 96c0 903d
00000010: a499 943d 80b1 bc3d 242d 08bd ae1f b73d
00000020: f9d6 a8bd bbcf ef3d d48e f9bc d138 c63d
00000030: 320a 673d b88b 53bd 6ad1 bebc 3a06 433d
00000040: 7de7 a6bd 936e 113d df6c d6bc 52aa 303d
00000050: 00f5 eb3c d8d8 853c 24a9 aabd 65cd d93d
00000060: dbb7 92bd f6dd be3d 7bda 833d be94 aabd
00000070: 3562 4f3d 074a 8fbd 722f 003d 7e49 adbd
00000080: 9aec 3f3c c27a 8a3d c460 913c 8c56 993c
00000090: 6655 abbd 2bff 81bd c910 623d f9da 4cbd
000000a0: cf92 4a3d 9424 ad3d 0a58 e13d 8b12 30bd
000000b0: 4a8e 713d dea8 7e3d 4037 a93a 1452 c93d
000000c0: 611c c43c 88e8 6a3d 505a f63c e639 263d
000000d0: 289e 153d 6d68 f53c d53b 413d b3f5 1c3d
000000e0: 6274 13bd 555d 58bd 9bf6 89bd 0f2c 3cbd
000000f0: 8ef5 7fbd 929e 33bb 8a3d 85bd 3b53 db3c

fc3.weight f4 [64, 64]
1.4142113 0.01257592 -0.038691487 0.080145575 -0.40279475 -0.3682854 0.1619598 0.19707218
-0.05018331 0.013707522 -0.007226452 -0.42540094 -0.019740764 0.4164199 0.33631954 -0.055004783
-0.07033661 0.17880654 -0.31272697 -0.0793972 -0.028611228 0.034763746 0.11359198 0.018438088
0.041186623 0.18228605 0.020677065 0.056394044 0.12711883 0.3328169 0.1554045 -0.02626197
0.21742828 0.17299587 0.083759926 0.19346833 -0.05129662 -0.08943349 -0.24529961 0.0885775
0.13091974 0.09611493 0.19151872 0.051349543 -0.30894446 0.13976462 -0.11864762 -0.012978569
0.02293861 -0.08258097 0.20388791 0.028590709 0.016184475 -0.08745188 -0.07375021 0.09058085
-0.016544797 -0.25848117 0.2712555 0.031904113 0.18511231 0.20265646 0.0073899813 -0.096551225
1.3810912 0.070534855 -0.04684422 0.08087443 -0.19048351 -0.39814943 0.1655914 0.053276096
0.015300408 0.03049839 -0.052618474 -0.27722245 0.16312349 0.446539 0.25585863 0.074901976
-0.11132692 0.1586678 -0.2502108 -0.042281862 -0.013166711 0.05945907 0.057641048 0.18330437
-0.030151319 0.031044042 0.10688658 -0.07707616 0.14512686 0.13014895 -0.0913558 -0.07061614
0.10584926 0.14081062 0.2504837 0.057817467 0.029697761 0.11207156 -0.20325652 0.026595086
0.018585963 0.1257597 0.189959 0.054922085 -0.26724684 0.18087359 0.009341598 0.046688844
0.11111223 -0.063978836 0.14045848 -0.10329517 -0.03437374 -0.10261936 -0.055915397 0.13588779
-0.07130521 -0.39312425 0.3193458 -0.09241848 0.042970844 -0.0440798 0.11509761 0.055857122
1.4364687 0.082849 -0.07967857 0.21656978 -0.4158054 -0.23879434 0.017806632 0.11654979
0.09617418 0.19552533 0.05993402 -0.39584976 0.048754387 0.44859314 0.25388104 0.024548901
0.096025124 -0.02604139 -0.4076081 0.051746387 -0.1170703 0.10794007 -0.053120036 0.16667229
-0.008061695 0.10613618 0.22132687 -0.0951852 -0.024092445 0.19347562 0.09552568 0.10389066
0.0076088794 0.021107906 0.21988517 0.016222438 0.021010756 -0.077533916 -0.42035782 0.13151817
0.20308836 0.19717698 0.046157923 0.15004288 -0.4461023 0.06770202 0.012990892 0.07522515
0.010214854 -0.06409994 0.21049857 -0.07718014 0.15209772 -0.070724696 -0.022615373 0.14427751
0.096638404 -0.32280174 0.1702119 -0.027539143 0.17028205 0.062220197 -0.10353985 -0.02820897
-0.12713704 0.03848613 0.122955665 -0.0067704916 0.051978935 0.041058037 0.063744664 -0.04975099
-0.07723078 -0.04994353 0.06475611 -0.100993864 0.09640384 0.11401396 0.068772435 0.025526641
0.099555194 -0.031244595 -0.06088406 0.060273465 -0.09480171 0.061604794 -0.053381056 -0.035768274
-0.055101648 -0.11701432 -0.12712015 0.05917874 -0.049309112 -0.08765601 -0.08636655 0.07765058
0.013027047 -0.045968756 0.120091215 0.09371748 0.01684457 -0.11586088 0.017183332 -0.020365434
-0.080893405 -0.02167028 0.009127668 0.053765927 0.016569793 -0.08267885 0.005009964 0.049836155
-0.10635002 0.00029608607 0.10176566 -0.0069929957 0.009749894 0.07018314 -0.113345414 -0.016515845
-0.0451812 -0.11800394 -0.05709724 -0.05825551 0.08290935 -0.08941327 -0.014451802 0.019056648
00000000: e004 b53f 3b0b 4e3c f77a 1ebd 5d23 a43d
00000010: 1d3b cebe e78f bcbe cad8 253e 4acd 493e
00000020: 048d 4dbd 8495 603c e0cb ecbb 27ce d9be
00000030: 62b7 a1bc fd34 d53e 1332 ac3e b24c 61bd
00000040: a40c 90bd 1019 373e c01d a0be 009b a2bd
00000050: 1862 eabc 6e64 0e3d e9a2 e83d 790b 973c
00000060: 4eb3 283d 32a9 3a3e f362 a93c 71fd 663d
00000070: 702b 023e fa66 aa3e 5b22 1f3e 5823 d7bc
00000080: 85a5 5e3e d425 313e 538a ab3d 901c 463e
00000090: 681c 52bd e828 b7bd d22f 7bbe 1f68 b53d
000000a0: d30f 063e e8d7 c43d 7c1d 443e e653 523d
000000b0: f82d 9ebe 751e 0f3e 86fd f2bd 10a4 54bc
000000c0: c0e9 bb3c 3620 a9bd fec7 503e 1037 ea3c
000000d0: 4e95 843c f919 b3bd 5a0a 97bd 7482 b93d
000000e0: f488 87bc a557 84be 00e2 8a3e e3ad 023d
000000f0: 158e 3d3e 2d85 4f3e a827 f23b a6bc c5bd
00000100: 99c7 b03f 9474 903d badf 3fbd 7ea1 a53d
00000110: 1c0e 43be 3eda cbbe cb90 293e 0938 5a3d
00000120: 90ae 7a3c c2d7 f93c 7886 57bd 1af0 8dbe
00000130: d809 273e c3a0 e43e e7ff 823e 3566 993d
00000140: 5eff e3bd d079 223e a11b 80be bf2f 2dbd
00000150: 30b9 57bc 5b8b 733d 0519 6c3d 24b4 3b3e
00000160: e6ff f6bc 1350 fe3c 5ae7 da3d 1bda 9dbd
00000170: 239c 143e c445 053e c018 bbbd 329f 90bd
00000180: 7fc7 d83d a930 103e 663f 803e 02d2 6c3d
00000190: b848 f33c c685 e53d 7a22 50be f0dd d93c
000001a0: 9741 983c 27c7 003e 9d84 423e fbf5 603d
000001b0: 94d4 88be ed36 393e 800d 193c cd3c 3f3d
000001c0: cf8e e33d 5607 83bd 59d4 0f3e 6b8c d3bd
000001d0: 7bcb 0cbd 192a d2bd 8b07 65bd 2b26 0b3e
000001e0: 7708 92bd 9547 c9be 4b81 a33e e645 bdbd
000001f0: 3202 303d 058d 34bd 4cb8 eb3d 70ca 643d
00000200: 35de b73f bdac a93d 852e a3bd 78c4 5d3e
00000210: 72e4 d4be 8186 74be 37df 913c a8b1 ee3d
00000220: f8f6 c43d cb37 483e 607d 753d d2ac cabe
00000230: aeb2 473d 00ae e53e b2fc 813e c71a c93c
00000240: d2a8 c43d c154 d5bc 02b2 d0be 05f4 533d
00000250: 8ec2 efbd af0f dd3d 6594 59bd 24ac 2a3e
00000260: 3315 04bc ed5d d93d 83a3 623e 75f0 c2bd
00000270: 855d c5bc 791e 463e f8a2 c33d a0c4 d43d
00000280: e853 f93b 7dea ac3c 9429 613e ebe4 843c
00000290: c01e ac3c 1aca 9ebd 2439 d7be b3ac 063e
000002a0: 65f6 4f3e c3e8 493e 1710 3d3d d7a4 193e
000002b0: 8567 e4be 5ba7 8a3d c0d7 543c a50f 9a3d
000002c0: 345c 273c d446 83bd f08c 573e 9f10 9ebd
000002d0: 81bf 1b3e 1cd8 90bd e043 b9bc 7cbd 133e
000002e0: 5bea c53d 4546 a5be 074c 2e3e c599 e1bc
000002f0: 6b5e 2e3e 9bda 7e3d b30c d4bd 7f16 e7bc
00000300: 3630 02be a2a3 1d3d 2ed0 fb3d 00db ddbb
00000310: dde7 543d 792c 283d 908c 823d b2c7 4bbd
00000320: 2c2b 9ebd 9691 4cbd da9e 843d dfd5 cebd
00000330: 606f c53d 2780 e93d 90d8 8c3d 3f1d d13c
00000340: 98e3 cb3d aaf4 ffbc 9061 79bd 4fe1 763d
00000350: 6627 c2bd 4f55 7c3d 18a6 5abd c181 12bd
00000360: 44b2 61bd 34a5 efbd c92b 02be 6865 723d
00000370: 5af8 49bd ff84 b3bd f2e0 b0bd 4407 9f3d
00000380: 656f 553c bc49 3cbd 62f2 f53d f3ee bf3d
00000390: a0fd 893c 7848 edbd 0fc4 8c3c 69d5 a6bc
000003a0: 71ab a5bd df85 b1bc 378c 153c a939 5c3d
000003b0: 60bd 873c 8753 a9bd a02a a43b ff20 4c3d
000003c0: 0ace d9bd 003c 9b39 846a d03d 8025 e5bb
000003d0: 05be 1f3c 2ebc 8f3d a421 e8bd 3d4c 87bc
000003e0: ec0f 39bd 0dac f1bd ccde 69bd 549d 6ebd
000003f0: 61cc a93d 4e1e b7bd 40c7 6cbc b01c 9c3c

fc3.bias f4 [64]
0.10472699 0.052309543 0.09909799 0.1128936 -0.00052189827 -0.03244163 -0.026384538 0.023729056
0.0417097 -0.03778198 0.1448895 0.061454102 -0.07479863 0.019862523 -0.08374998 -0.020790314
-0.009603168 0.14058064 0.07412908 -0.052952744 -0.051305737 0.119400576 0.019172054 0.014122238
-0.03459378 -0.02478991 0.08508105 0.13924433 0.08810531 0.0417535 -0.07888361 0.063575566
-0.07575788 0.08173522 0.00096832216 0.035118222 0.06125565 0.09997668 0.094099425 0.043017324
0.050803564 0.106944196 0.09314509 0.10627213 0.075734615 -0.073017575 0.040577695 -0.08661728
0.07536453 -0.12082821 0.007183465 0.070075475 0.058593825 0.07302889 0.099517845 0.079263985
0.008084046 -0.055390522 0.02678462 0.0793997 0.03331938 0.048522696 0.1132443 -0.10241054
00000000: 1b7b d63d 8842 563d e3f3 ca3d c234 e73d
00000010: 00d0 08ba 84e1 04bd 6324 d8bc 7063 c23c
00000020: cad7 2a3d 47c1 1abd ea5d 143e 4cb7 7b3d
00000030: 0630 99bd bbb6 a23c 1c85 abbd 7350 aabc
00000040: 9b56 1dbc 5ff4 0f3e fdd0 973d fae4 58bd
00000050: f725 52bd 4a88 f43d b60e 9d3c f660 673c
00000060: 35b2 0dbd 3614 cbbc f93e ae3d 1196 0e3e
00000070: 8f70 b43d b805 2b3d bb8d a1bd e833 823d
00000080: f326 9bbd cc64 a73d 00d7 7d3a 20d8 0f3d
00000090: 34e7 7a3d 93c0 cc3d 33b7 c03d ef32 303d
000000a0: 6617 503d 8f05 db3d dac2 be3d 34a5 d93d
000000b0: c01a 9b3d 3d8a 95bd cc34 263d 6764 b1bd
000000c0: b858 9a3d c874 f7bd 4663 eb3b bb83 8f3d
000000d0: 1400 703d 2c90 953d 03d0 cb3d 2855 a23d
000000e0: f272 043c 2ce1 62bd 6b6b db3c 4f9c a23d
000000f0: e779 083d bcbf 463d a1ec e73d 9ebc d1bd

fc4.weight f4 [3, 64]
-0.21536525 -0.19534318 -0.2768916 -0.064614706 -0.028609827 -0.08785468 -0.26974615 0.06625864
-0.39911756 0.061187375 0.34920672 0.08958204 -0.010371372 0.012983852 -0.052009147 -0.23240401
-0.0029302048 0.45581162 -0.19731125 -0.46523428 0.047832057 -0.050621644 -0.028506186 -0.33976585
0.08532198 -0.11492382 0.20433336 -0.19062282 0.10354121 -0.0033798814 -0.11261794 0.01085937
-0.11170982 0.023833321 -0.046033174 -0.037192 0.28634915 -0.16938795 0.0861181 -0.137263
0.44500554 -0.23715127 -0.65300184 0.05848439 -0.26186275 -0.0011706224 -0.10328475 -0.00090093515
-0.24779621 -0.008326113 -0.1711106 0.1856018 -0.15892532 -0.24463435 -0.00039698044 0.025803238
-0.12631552 0.49886924 -0.07916662 -0.12166132 -0.2523572 -0.3094138 -0.06188039 0.024500832
-0.21185263 -0.13378495 -0.26024038 -0.1000703 -0.12418403 0.02733834 -0.1116203 -0.07987513
-0.41801044 -0.08617725 0.44738492 0.11798228 -0.07829212 -0.06533609 0.09432258 -0.19689308
-0.08243807 0.340254 -0.1915478 -0.50455487 0.013121352 -0.024615824 -0.10389725 -0.51964736
-0.08360268 -0.27476227 0.2692726 -0.1416586 -0.08031443 0.064880595 -0.13920942 -0.12226659
-0.21731356 0.031764507 -0.115857825 -0.13818543 0.45371294 -0.21826462 -0.059220925 -0.14107366
0.40272334 -0.121915154 -0.5590132 -0.123119965 -0.397481 -0.016008157 -0.045216847 -0.068137124
-0.21431878 0.009528086 -0.06375817 0.40532342 -0.16268991 -0.1617101 -0.16609392 0.08195633
-0.20023796 0.32096738 -0.23955038 -0.11298504 -0.24920988 -0.20284203 0.12515932 -0.07448198
-0.21181542 -0.16931972 -0.22043292 0.026023312 -0.0794625 0.06879985 -0.20680435 0.11768964
-0.59417075 -0.42759207 0.52704537 -0.023193412 0.008411586 0.08122148 0.083383605 -0.26119933
0.11467855 0.18011701 -0.17295353 -0.49803084 0.012928263 0.0018367916 -0.36855218 -0.8271383
0.071311 -0.53102577 0.22535443 0.09839119 0.13786636 0.12266482 -0.21520333 -0.07722156
-0.13876136 0.0144077325 0.10577254 -0.019575646 0.69199747 -0.1863423 0.05609805 -0.14248595
0.39235824 -0.15145506 -0.3777127 -0.041786447 -0.5896296 0.09033503 0.007950146 0.08621995
-0.06867178 0.08301389 -0.16794673 0.36145255 -0.18271485 -0.14287555 -0.17252968 -0.06847179
-0.14037478 0.40987703 -0.2188756 -0.18248986 -0.23374434 -0.29813132 0.33632618 -0.034439832
00000000: b588 5cbe 0b08 48be bcc4 8dbe b754 84bd
00000010: 285f eabc 28ed b3bd 2b1c 8abe 9cb2 873d
00000020: 2359 ccbe 9d9f 7a3d 39cb b23e ca76 b73d
00000030: b0ec 29bc 39ba 543c 8b07 55bd 51fb 6dbe
00000040: ae08 40bb 2460 e93e f60b 4abe 3033 eebe
00000050: 8ceb 433d a458 4fbd ce85 e9bc caf5 adbe
00000060: 4abd ae3d 2e5d ebbd c43c 513e a132 43be
00000070: 6a0d d43d 0081 5dbb 3ca4 e6bd 80eb 313c
00000080: 1ec8 e4bd 193e c33c 488d 3cbd a356 18bd
00000090: 5b9c 923e 0974 2dbe b05e b03d ac8e 0cbe
000000a0: c4d7 e33e c8d7 72be 212b 27bf 548d 6f3d
000000b0: e012 86be 926f 99ba f486 d3bd bc2c 6cba
000000c0: 4abe 7dbe 406a 08bc 9e37 2fbe 660e 3e3e
000000d0: 52bd 22be 6d81 7abe d021 d0b9 5061 d33c
000000e0: db58 01be ca6b ff3e 1c22 a2bd 9229 f9bd
000000f0: f734 81be 7c6b 9ebe 4b76 7dbd f8b5 c83c
00000100: e5ef 58be ecfe 08be 3a3e 85be a8f1 ccbd
00000110: 3254 febd a8f4 df3c 2f99 e4bd 9295 a3bd
00000120: 7705 d6be b37d b0bd a30f e53e b2a0 f13d
00000130: 9e57 a0bd eece 85bd 322c c13d 579e 49be
00000140: 4ad5 a8bd c635 ae3e 1b25 44be 822a 01bf
00000150: f0fa 563c 20a7 c9bc 15c8 d4bd 9c07 05bf
00000160: e237 abbd a4ad 8cbe 19de 893e f40e 11be
00000170: e47b a4bd 1ee0 843d ea8c 0ebe e866 fabd
00000180: 7287 5ebe 801b 023d de46 edbd 7b80 0dbe
00000190: 104d e83e c380 5fbe a491 72bd 9d75 10be
000001a0: c131 ce3e a7ae f9bd 7d1b 0fbf 5226 fcbd
000001b0: a182 cbbe 8a23 83bc 4d35 39bd 7a8b 8bbd
000001c0: 6276 5bbe b01b 1c3c a593 82bd 8d86 cf3e
000001d0: 2f98 26be 5597 25be 8614 2abe b8d8 a73d
000001e0: 2e0b 4dbe d655 a43e b24c 75be b364 e7bd
000001f0: e030 7fbe d2b5 4fbe c429 003e 028a 98bd
00000200: 24e6 58be 2662 2dbe 2bb9 61be d72e d53c
00000210: 3cbd a2bd f0e6 8c3d 85c4 53be 4407 f13d
00000220: 931b 18bf 59ed dabe 72ec 063f 1c00 bebc
00000230: c0d0 093c 7357 a63d 06c5 aa3d ebbb 85be
00000240: 96dc ea3d 9870 383e bb1a 31be e6fd febe
00000250: 11d1 533c 80c0 f03a dfb2 bcbe 56bf 53bf
00000260: 800b 923d 4ef1 07bf 50c3 663e 5281 c93d
00000270: d72c 0d3e b137 fb3d 435e 5cbe 5626 9ebd
00000280: 7517 0ebe 690e 6c3c 469f d83d 1b5d a0bc
00000290: bf26 313f 84d0 3ebe 12c7 653d d6e7 11be
000002a0: 2ee3 c83e 0917 1bbe 8f63 c1be 4428 2bbd
000002b0: f7f1 16bf 9201 b93d 5441 023c 1694 b03d
000002c0: caa3 8cbd 3003 aa3d 3afa 2bbe 4f10 b93e
000002d0: 9a19 3bbe f84d 12be 9fab 30be f03a 8cbd
000002e0: 68be 0fbe 67db d13e ed20 60be 9fde 3abe
000002f0: ad5a 6fbe aba4 98be f232 ac3e c810 0dbd

fc4.bias f4 [3]
-0.19538459 -0.100036986 0.021282379
00000000: e612 48be 31e0 ccbd 6258 ae3c
