DQN/Cartpole/dqn_model.pth (torch, 20583 bytes, 6 tensors)

fc1.weight f4 [64, 4]
0	0xbe83c72e	-0.257379
1	0x3d6fe5b5	0.058568675
2	0xc0111f8b	-2.2675502
3	0x3d7ad916	0.061242186
4	0xbf753bb0	-0.957942
5	0x3fed3732	1.8532469
6	0x4159fbec	13.624004
7	0x400dc427	2.2150972
8	0x40236086	2.5527663
9	0x4001478a	2.0199914
10	0x410870f2	8.527575
11	0x400fb106	2.2451797
12	0x3e947aeb	0.2900003
13	0x3f12a66f	0.5728521
14	0xbf28881c	-0.65832686
15	0xbe188eb9	-0.14898194
16	0x3efa3618	0.48869395
17	0xbfe4f2a5	-1.7886549
18	0xc083c8d5	-4.1182656
19	0xbf97ab6b	-1.1849188
20	0x3f403b1a	0.7509018
21	0x3ce1bfdb	0.027557304
22	0xbee1e64e	-0.4412102
23	0x3e67d422	0.22639516
24	0x3ebc2988	0.36750436
25	0x3eaf1573	0.34196052
26	0xc009e21b	-2.1544254
27	0x3e21dd5d	0.158071
28	0x3d9365e5	0.07197169
29	0x3d8b603f	0.06805467
30	0xbf109891	-0.564828
31	0x3f2632d3	0.649213
32	0x3f0308c7	0.5118527
33	0x3f360b57	0.71111053
34	0x3f3a68f5	0.728164
35	0x3ea16b34	0.31527102
36	0x3f61a2ad	0.8813885
37	0xbfd388e4	-1.6526151
38	0xc161fc3e	-14.124083
39	0xbfdf67c6	-1.7453544
40	0x3f1930c1	0.5984002
41	0x3dbbdeb7	0.09173339
42	0x3fb72dbd	1.4310833
43	0x3f7f941c	0.9983537
44	0x3f8991f9	1.0747672
45	0x3e41c110	0.18921304
46	0xbf916dec	-1.136167
47	0x3f12bce0	0.5731945
48	0x3e972c25	0.29525867
49	0x3f1789ea	0.59194815
50	0xbf80e489	-1.0069743
51	0x3ec9a346	0.3938238
52	0xbe894b50	-0.2681527
53	0x3f186b40	0.5953865
54	0xbf902231	-1.1260434
55	0xbecef602	-0.40422064
56	0xbdff22ee	-0.12457834
57	0xbecf7b44	-0.40523732
58	0xbedb0fad	-0.42785397
59	0x3f193fb0	0.59862804
60	0x3f1c81a5	0.6113532
61	0x3eb2e3b0	0.34939337
62	0xbfb1c944	-1.3889546
63	0xbe4f7d5d	-0.20262666
64	0x3edf2eaa	0.4359029
65	0x3ee6320a	0.44960052
66	0xbf362f7e	-0.7116622
67	0xbec888d7	-0.391669
68	0x3e9fc7c5	0.312071
69	0xbe95cf80	-0.29259872
70	0xbfe30c32	-1.7738097
71	0xbdd2dd6f	-0.10296141
72	0xbf170797	-0.58995956
73	0x3f6cadeb	0.9245288
74	0x3fe3a7ed	1.7785622
75	0xbef0e398	-0.4704864
76	0xbf2b48d8	-0.66908026
77	0x3faec248	1.365304
78	0x41956658	18.674973
79	0x403eed49	2.9832327
80	0x3f8aeaf7	1.0852956
81	0x3f5bd30b	0.858689
82	0xbff78290	-1.933672
83	0x3f7df481	0.9920121
84	0xc00ab28e	-2.167148
85	0xbebbb2d4	-0.36659873
86	0x40054671	2.0824244
87	0x3eb255bd	0.34831038
88	0xbe888707	-0.26665518
89	0xbdfc1505	-0.12308697
90	0xbf17ea9e	-0.5934237
91	0xbe929e00	-0.2863617
92	0x3e87ab87	0.26498052
93	0x3ea69dd1	0.3254228
94	0x3e2d77f7	0.16940294
95	0x3f1cdf2d	0.6127804
96	0xc027329e	-2.6124644
97	0xbf92c482	-1.146622
98	0x4014a114	2.3223314
99	0x3da9f717	0.08299082
100	0xbfefd784	-1.8737645
101	0xc0151c5e	-2.3298564
102	0xc1237030	-10.21489
103	0xc0102d1f	-2.252754
104	0xbdaac715	-0.08338753
105	0x3e1ef48d	0.15522976
106	0x3f5eee96	0.87082803
107	0x3dd0b8b2	0.10191478
108	0x3f8cefeb	1.1010717
109	0xbd800c8a	-0.06252392
110	0xbfa70b55	-1.3050333
111	0x3f1ca800	0.6119385
112	0x3e8f3bee	0.2797541
113	0x3d138224	0.036012784
114	0xbf889ac2	-1.0672228
115	0x3f1339c7	0.57510036
116	0xbe6058e6	-0.21908912
117	0xbf07f47d	-0.53107435
118	0xbfabecb5	-1.3431612
119	0x3e32a067	0.17444001
120	0x4011035b	2.2658298
121	0x40017158	2.022543
122	0x402625d9	2.59606
123	0x3fc868e7	1.5657014
124	0xbf82de9a	-1.0224183
125	0x3fd598af	1.668722
126	0x41960e9f	18.75714
127	0x40442fc7	3.065416
128	0x3f4543be	0.7705649
129	0xbfdfecd1	-1.7494146
130	0xc17851fa	-15.520014
131	0xbfd70d42	-1.6800921
132	0x3f0895c2	0.5335351
133	0xbf536643	-0.82577914
134	0xc1832dc2	-16.397343
135	0xc006566b	-2.0990245
136	0x3e382e65	0.17986448
137	0x3db7382c	0.08946261
138	0xbe15431c	-0.14576381
139	0x3f69cd02	0.9132844
140	0x3f273d9c	0.65328383
141	0x3efee9b3	0.49787673
142	0xbfb60ad9	-1.422206
143	0x3f00d929	0.5033136
144	0x3d0338de	0.032036655
145	0x3e0b1b3b	0.13584606
146	0xbd4f7b29	-0.050654564
147	0x3c816eb0	0.01579985
148	0xc0040187	-2.0625932
149	0xbf802efd	-1.001434
150	0xbbbcb9e5	-0.005759465
151	0x3d35f8a6	0.044426583
152	0x3f4a46a2	0.7901403
153	0xbf49e9dd	-0.7887247
154	0xc18e5547	-17.79164
155	0xc0314f49	-2.7704642
156	0xbf5a5583	-0.8528673
157	0x3e63a087	0.22229205
158	0x400f84d9	2.2424834
159	0xbf08fa1b	-0.5350663
160	0x3f3f2ee0	0.746809
161	0x3de9c644	0.11414769
162	0x3eb2d3b9	0.34927157
163	0x3f12f9ae	0.5741223
164	0xbe863e89	-0.26219586
165	0x3f0c5fd7	0.5483374
166	0x3fc023f4	1.5010972
167	0xbe672a58	-0.22574747
168	0xbc9d3ad4	-0.01919309
169	0xbc71c358	-0.014756046
170	0xbe6d2ffe	-0.23162839
171	0x3ead53ad	0.33852902
172	0xbffb64d0	-1.964014
173	0x3ecf0f8a	0.40441543
174	0x4168302a	14.511759
175	0x40320ad4	2.781911
176	0x3f7b0450	0.98053455
177	0xbddcbb5c	-0.107779235
178	0xc0285ed8	-2.6307888
179	0x3f522dc5	0.8210109
180	0x3ecc2e17	0.39878914
181	0x3f75ad2b	0.9596736
182	0xbe675371	-0.22590424
183	0xbed25db8	-0.41087127
184	0xbed48d98	-0.41514277
185	0xbdd33e34	-0.10314599
186	0xbffb37e0	-1.9626427
187	0x3e80e84e	0.25177234
188	0x3e1c5c52	0.15269592
189	0x3e2ca527	0.16859876
190	0xbf943bd5	-1.1580759
191	0x3f0d77b5	0.55260783
192	0xbf2773c1	-0.65411
193	0x3f594eab	0.8488566
194	0x400e1fbe	2.2206874
195	0xbece095f	-0.40241525
196	0x3ef0efb9	0.47057894
197	0xbf482047	-0.7817425
198	0xc17bb5aa	-15.731852
199	0xc01b2f48	-2.4247608
200	0x402a08b4	2.6567812
201	0x4006a001	2.1035159
202	0xc0f3ddb7	-7.620815
203	0x3eb2c9d1	0.349196
204	0xbf0361ae	-0.5132092
205	0x3f17e867	0.5933899
206	0xbfa10fa7	-1.2582902
207	0xbe6c33eb	-0.2306668
208	0x3f1c2a47	0.6100201
209	0x3eda6399	0.42654112
210	0xbfb670a3	-1.4253124
211	0xbe036501	-0.12831499
212	0x3e4fe155	0.20300801
213	0x3e5e522f	0.21711038
214	0xbf7956b2	-0.9739791
215	0xbeb71df1	-0.3576503
216	0x3f43c034	0.76465154
217	0x3f22216e	0.6333226
218	0x3f8a30f8	1.0796194
219	0x3ef2ec86	0.47446078
220	0x3fa00559	1.2501632
221	0x3f29b8c5	0.6629756
222	0xc0b1950c	-5.549444
223	0xbef99e78	-0.48753715
224	0x3f225315	0.63408023
225	0x3e8f3a8d	0.27974358
226	0x3f09fe26	0.53903425
227	0x3ef9b3b7	0.48769924
228	0x3f7b7c03	0.982361
229	0x3f57c8dc	0.8429086
230	0x4167059d	14.43887
231	0x40030dec	2.0477247
232	0x3f005cb7	0.5014147
233	0x3f22b892	0.6356288
234	0x3db76ebb	0.08956667
235	0x3e4ee0bb	0.20202915
236	0xbd6e6464	-0.05820121
237	0x3eb30b8f	0.34969756
238	0xc0e21a26	-7.065692
239	0xbf05e49e	-0.5230197
240	0x3edaae90	0.42711306
241	0x3f4b0544	0.7930491
242	0x3f7a5963	0.97792643
243	0x3eba36fe	0.3637008
244	0x3c9caeea	0.019126374
245	0xbd06d9bd	-0.032922495
246	0xc00131c5	-2.0186627
247	0x3e8fd0e6	0.28089064
248	0xbf5daecd	-0.8659485
249	0xbfb4bcf1	-1.412016
250	0xc06dc844	-3.7153482
251	0xbfac9038	-1.3481512
252	0xbecde88b	-0.4021648
253	0x3e3c6be9	0.1840054
254	0x3fe60fb5	1.7973543
255	0x3ee7ceef	0.45275065

fc1.bias f4 [64]
0	0x4074ada7	3.823099
1	0x409e717e	4.951354
2	0xbfbb893f	-1.4651259
3	0x4084da35	4.1516366
4	0x400b613b	2.1778095
5	0x406f7c7c	3.741973
6	0x40743fd3	3.8163955
7	0x408091c2	4.0177927
8	0x40787328	3.8820286
9	0x40903b9d	4.507277
10	0x4070dd85	3.7635205
11	0x40796784	3.896943
12	0x40754269	3.8321784
13	0x4086e04f	4.2148814
14	0x407353a0	3.801979
15	0x408223d6	4.0668745
16	0x4087bba0	4.2416534
17	0x4070d7de	3.7631755
18	0x40626097	3.5371454
19	0x409192ff	4.549194
20	0x4077d7c4	3.8725443
21	0x40435dfc	3.0526114
22	0x407b33bc	3.9250326
23	0x4081152b	4.033834
24	0x3fd0f22e	1.6323907
25	0x40548321	3.3205035
26	0x4080c7ca	4.0243883
27	0x4078ead3	3.8893325
28	0x4077e58e	3.873386
29	0x406dd30d	3.7160065
30	0x40870837	4.219753
31	0x40b57a61	5.671189
32	0x408e40ce	4.4454107
33	0x406dc597	3.715185
34	0x407d74bf	3.9602506
35	0x4080b993	4.022653
36	0xbf0b99c4	-0.545315
37	0x403d203f	2.9550931
38	0x4055c6c5	3.340257
39	0x404b771d	3.179145
40	0x4083c652	4.117959
41	0x40650932	3.5786862
42	0x4075fbc7	3.8434923
43	0x408e5681	4.4480596
44	0x4056349e	3.3469615
45	0x40899720	4.299698
46	0x4071b707	3.776796
47	0x4070f226	3.7647796
48	0x40455d00	3.0838013
49	0x407722ed	3.8615067
50	0x4083c52a	4.117818
51	0x4082b504	4.0845966
52	0x4082ecc9	4.0914044
53	0x4081402f	4.039085
54	0x40802fb4	4.005823
55	0xbf52a5c8	-0.8228421
56	0x407bdbd9	3.9352934
57	0x406dbdb7	3.7147043
58	0x4084a7a8	4.145466
59	0xbfa5bba5	-1.294789
60	0x40846ff6	4.138667
61	0x40715755	3.7709553
62	0x3f454af4	0.77067494
63	0x406942c0	3.644699

fc2.weight f4 [64, 64]
0	0x40192278	2.3927288
1	0xc0bc0b2e	-5.8763647
2	0xc0bb5945	-5.854647
3	0x3ff1947f	1.8873442
4	0x4097d3ab	4.7445884
5	0x40243c2b	2.5661724
6	0x4003565a	2.0521455
7	0x402340d1	2.550831
8	0x40083aad	2.1285813
9	0xc0dcb25b	-6.896772
10	0x40061f06	2.0956435
11	0x40215828	2.5210056
12	0x40056255	2.0841267
13	0x3fee8269	1.8633548
14	0x4031691f	2.772041
15	0x400ecef5	2.2313817
16	0x400271fe	2.0382075
17	0x40271690	2.610752
18	0x3ff3f6a4	1.9059644
19	0xc1304885	-11.017705
20	0x4009fcbc	2.1560507
21	0x403b36ed	2.9252274
22	0x40256f42	2.5849156
23	0x4013053f	2.2971952
24	0x402d7450	2.7102242
25	0xc0d275a2	-6.5768595
26	0x401ad0ac	2.4189863
27	0x402431e9	2.5655463
28	0x4021b3d5	2.526601
29	0x403361b6	2.8028388
30	0xc0965700	-4.69812
31	0xc10076ea	-8.029032
32	0xc0d11800	-6.5341797
33	0xc1228462	-10.15732
34	0x4010babc	2.2613974
35	0x40055f62	2.0839467
36	0xbcba1502	-0.022715095
37	0xc02874ba	-2.6321244
38	0xc0f64bdf	-7.6967616
39	0x402c773e	2.694778
40	0x4019e1a4	2.404397
41	0x40045732	2.067822
42	0x401ef08f	2.4834325
43	0xc09e658d	-4.9498963
44	0x403a2bb3	2.9089172
45	0x3fbdde54	1.4833474
46	0x401de822	2.4672933
47	0x401c6fde	2.4443278
48	0x3fe776be	1.8083112
49	0xc10b0315	-8.688252
50	0xc062f105	-3.5459607
51	0x4011d77e	2.2787776
52	0x3ff4a395	1.9112421
53	0x4013a272	2.3067899
54	0x4010b832	2.2612424
55	0xc0e30589	-7.0944257
56	0x401e41ff	2.472778
57	0xc139deb4	-11.616871
58	0x400bc6e4	2.1840143
59	0xc0cefe73	-6.4685607
60	0x401295c8	2.290392
61	0x40294987	2.6451128
62	0x40473f64	3.113244
63	0x3fef1e6b	1.8681158
64	0xbe13de4d	-0.1444027
65	0x3d506327	0.05087581
66	0x3d3893ac	0.045062706
67	0xbd7ffab4	-0.06249495
68	0xbd835bae	-0.06413971
69	0xbc834acd	-0.016026879
70	0xbe1156e4	-0.14193302
71	0xbe0a9de8	-0.13536799
72	0xbdf4906b	-0.11941608
73	0xbda9cc12	-0.082908764
74	0x3c801879	0.01563667
75	0xbe0dce15	-0.13848145
76	0xbe0d7350	-0.1381352
77	0xbd72489d	-0.05915128
78	0xbd7b5bd2	-0.061366864
79	0x3c7ed1b6	0.015552929
80	0xbdea6cf1	-0.1144656
81	0x3d7c694f	0.061623868
82	0x3ced1472	0.028940413
83	0xbd98cdc3	-0.07461121
84	0xbdc9076d	-0.098158695
85	0x3b2f46d9	0.002674511
86	0x3c901e68	0.017592624
87	0x3d0524f2	0.032505937
88	0xbc8ea3fe	-0.017412182
89	0xbc1a4770	-0.009416446
90	0xbdff7dd6	-0.12475173
91	0xbe14cc8e	-0.14531156
92	0x3b8a8096	0.0042267544
93	0x3b8bda0d	0.004267937
94	0xbe23e63a	-0.16005793
95	0x3dae757e	0.085185036
96	0xbdd2a5b7	-0.10285514
97	0xbde60da1	-0.11233068
98	0x3c52148a	0.01282228
99	0xbdf07be0	-0.11742377
100	0xbdbb08b8	-0.09132522
101	0x3ce025f0	0.02736184
102	0xbdfcab1c	-0.12337324
103	0x3c2930f2	0.010326611
104	0x3d874f7b	0.066069566
105	0x3c933ca3	0.01797325
106	0xbd658925	-0.056038994
107	0xbd923cb9	-0.07140488
108	0x3d8230d9	0.06356973
109	0x3d69e126	0.057099484
110	0xbd37cc13	-0.044872355
111	0x3da7fb77	0.0820226
112	0xbdf10c69	-0.11769945
113	0xbdf26568	-0.11835748
114	0xbe188ebc	-0.14898199
115	0xbd265edf	-0.04061782
116	0xbd4d0097	-0.05004939
117	0xbe02a593	-0.12758474
118	0xbdd52e26	-0.10409193
119	0x3c8304b8	0.015993461
120	0xbdc6fae0	-0.09715819
121	0xbe16ce54	-0.14727145
122	0xbdfe14d0	-0.124063134
123	0xbd5c9441	-0.053852323
124	0x3d3bc959	0.045846317
125	0xbc8c2b5c	-0.01711052
126	0x3d1b4a87	0.03791287
127	0x3d6d0b31	0.057872
128	0x406207aa	3.5317178
129	0xc0b1bcba	-5.554288
130	0xc0450728	-3.0785618
131	0x405b0974	3.422452
132	0x40a81032	5.251977
133	0x406ee5ee	3.7327838
134	0x4061679f	3.5219495
135	0x405f4caf	3.4890554
136	0x40616aaa	3.5221353
137	0xc04dcc49	-3.2155936
138	0x403e7906	2.9761367
139	0x4074ebb3	3.826886
140	0x405b0c37	3.4226205
141	0x404d501b	3.2080142
142	0x405d4efe	3.4579463
143	0x405eb27b	3.4796436
144	0x40638537	3.5550058
145	0x4063317d	3.5498955
146	0x404207fe	3.0317378
147	0xc1292a55	-10.572835
148	0x4059f23b	3.4054096
149	0x403160f8	2.7715435
150	0x4066c92b	3.6060283
151	0x405fd553	3.4973953
152	0x40356aa4	2.8346338
153	0xbfb2beac	-1.3964438
154	0x405aee55	3.4207966
155	0x40754a8b	3.8326747
156	0x4066f529	3.6087134
157	0x40605cdf	3.5056684
158	0x3dd9055d	0.10596726
159	0xc111eb98	-9.120018
160	0xc05a3cd0	-3.4099617
161	0xc0b932a7	-5.787433
162	0x405235a6	3.2845244
163	0x405b682d	3.4282334
164	0xbd9d5930	-0.07683027
165	0xc00fef79	-2.2489913
166	0xc089cc77	-4.306209
167	0x4049bd32	3.1521726
168	0x4062dd41	3.5447543
169	0x404cef29	3.2020972
170	0x405cb40a	3.4484887
171	0xc09d7fc0	-4.9218445
172	0x406dd445	3.716081
173	0x4040c454	3.011983
174	0x405b1c14	3.4235888
175	0x4064943e	3.571548
176	0x406540f2	3.582089
177	0xc0b7c60d	-5.742926
178	0xbf0ed41e	-0.55792415
179	0x405c7c09	3.4450705
180	0x40665fa7	3.5995882
181	0x406214b7	3.5325143
182	0x406383ac	3.5549116
183	0xc02d421a	-2.7071595
184	0x40599e3c	3.4002829
185	0xc0b63989	-5.6945233
186	0x405f2dc2	3.4871678
187	0xc055fda9	-3.3436072
188	0x4061d745	3.528764
189	0x4064d5d1	3.5755503
190	0x408fa36a	4.488698
191	0x402d606a	2.7090096
192	0x4002bb62	2.042687
193	0xc10147bf	-8.080016
194	0xc108713a	-8.527643
195	0x3fbb8757	1.4650677
196	0x40557ea8	3.3358555
197	0x4014206d	2.314479
198	0x3fe13541	1.7594377
199	0x4008b781	2.1362002
200	0x3fe6bbcb	1.802606
201	0xc0c6da23	-6.214128
202	0x40082af9	2.1276228
203	0x40182102	2.3770146
204	0x3fe108c5	1.7580801
205	0x3fd14642	1.6349566
206	0x4021784e	2.5229678
207	0x3fe5fc72	1.7967665
208	0x3fd6a603	1.6769413
209	0x4007ac8f	2.1199071
210	0x3fbfee3f	1.4994582
211	0xc1475d44	-12.46027
212	0x3ff7193d	1.9304577
213	0x40065132	2.0987058
214	0x400c7a20	2.194954
215	0x40080235	2.1251347
216	0x3fc83986	1.5642555
217	0xc0de0b78	-6.9389
218	0x3ff9b84f	1.9509372
219	0x4010ea98	2.2643185
220	0x40106e8a	2.2567468
221	0x40164ac1	2.3483126
222	0xc0183d1b	-2.3787296
223	0xc12bcf56	-10.738119
224	0xc0d12a24	-6.536394
225	0xc11d4469	-9.829202
226	0x400924d2	2.1428723
227	0x3ffc8d59	1.9730636
228	0x3d3d81e8	0.046266466
229	0xc056e066	-3.3574462
230	0xc105190c	-8.318615
231	0x400d557e	2.208343
232	0x400020f3	2.002011
233	0x3fe3fb3c	1.7811046
234	0x400b7b2d	2.179393
235	0xc0f22591	-7.5670857
236	0x402904ab	2.64091
237	0x3f93c29b	1.1543764
238	0x4004c50a	2.0745263
239	0x40048e85	2.0711987
240	0x3fe2737e	1.7691495
241	0xc0fc19c9	-7.8781476
242	0xc090069a	-4.500806
243	0x3ff9695b	1.9485277
244	0x3fd637a3	1.6735729
245	0x3feba56f	1.8409861
246	0x40019c3d	2.025161
247	0xc116d4c9	-9.4269495
248	0x3ffce203	1.9756473
249	0xc10a827b	-8.656856
250	0x3ffbec9e	1.9681585
251	0xc0d579ac	-6.6711025
252	0x3fe3bb64	1.7791562
253	0x4008de08	2.1385517
254	0x403c679f	2.9438245
255	0x3fe4408a	1.7832196

fc2.bias f4 [64]
0	0x402bb765	2.6830685
1	0xbda25922	-0.07927157
2	0x40805ec6	4.011569
3	0x400a18ee	2.1577716
4	0x3ff63b9b	1.923694
5	0x3da03097	0.07821768
6	0xbd8bb718	-0.06822032
7	0x400e9a63	2.228173
8	0x3f20569d	0.6263216
9	0xbd65dae9	-0.056116972
10	0x4060ea5b	3.514304
11	0x4018cc9a	2.387488
12	0x4009934f	2.149616
13	0x4017bdf3	2.3709686
14	0x40161287	2.3448808
15	0xbda6665a	-0.08124991
16	0x404b728a	3.178866
17	0xbe2c5efe	-0.16833112
18	0x409efd4d	4.9684205
19	0x3ff8fb81	1.9451753
20	0xbc6667da	-0.014062846
21	0x40c6ad34	6.208643
22	0x4051520a	3.2706323
23	0xbe01c078	-0.12671077
24	0x40400ff8	3.0009747
25	0xbccce885	-0.025013218
26	0x400c6c4d	2.1941102
27	0xbe22609e	-0.15857169
28	0xbc8f0834	-0.017459966
29	0x3fe50c72	1.7894423
30	0x3ff63749	1.9235622
31	0x4034d221	2.8253253
32	0x3f921f64	1.141583
33	0x4008dd19	2.1384947
34	0x3ffdebe2	1.9837611
35	0x4045ac70	3.0886497
36	0x4049ea49	3.1549246
37	0x40081c35	2.1267216
38	0x3f933f09	1.1503612
39	0x400f4ee5	2.2391903
40	0x3f902903	1.1262516
41	0x401081b4	2.2579165
42	0x401a6f12	2.4130292
43	0xbdb946ba	-0.09046693
44	0x4006a480	2.1037903
45	0x4011a40b	2.2756374
46	0x3ffbe4dd	1.9679219
47	0x401f73be	2.4914393
48	0x4026cd87	2.6062944
49	0xbb9876d3	-0.004652837
50	0x3ca1dcbd	0.019758577
51	0xbd9a71f2	-0.075412646
52	0x404b4116	3.1758475
53	0x40272183	2.6114204
54	0x4009a38f	2.1506078
55	0x40069c70	2.1032982
56	0x400741fd	2.1134026
57	0x4015110b	2.3291652
58	0xbe11ed8f	-0.14250778
59	0x403afd3a	2.9217057
60	0xbdb2c873	-0.08729639
61	0xbc37363b	-0.011182363
62	0xbd4cd290	-0.050005496
63	0x3ff07a46	1.8787315

fc3.weight f4 [2, 64]
0	0x4131c466	11.110449
1	0xbc04a071	-0.008094893
2	0x40a1eee6	5.0604124
3	0x4146a70b	12.415782
4	0x415603ba	13.37591
5	0xbda09f8b	-0.078429304
6	0xbd7f7b21	-0.062373284
7	0x4138b414	11.543964
8	0xc10f4311	-8.953874
9	0xbd4ef9b8	-0.05053112
10	0x4186f853	16.871252
11	0x4185bffb	16.71874
12	0x4147d5be	12.489683
13	0x40d44870	6.6338425
14	0x415f296e	13.947615
15	0x3d9ecc08	0.077537596
16	0x41733f07	15.202888
17	0x3d04a6b8	0.032385558
18	0xbfbcf77d	-1.4763027
19	0x41aaa241	21.329226
20	0xbda34644	-0.079723865
21	0xc0c57279	-6.1702237
22	0x4087272e	4.2235327
23	0xbd7aaeb7	-0.061201777
24	0x40cc67c7	6.387668
25	0xbc9ac5d4	-0.01889316
26	0x41486763	12.525241
27	0x3d5093d1	0.05092222
28	0x3d404673	0.046942186
29	0x4156de3d	13.429257
30	0x4158d7bf	13.552672
31	0x3fe69cec	1.8016639
32	0x41459ff7	12.351554
33	0x41624891	14.142716
34	0x415ba50c	13.727795
35	0x3f1f1eef	0.62156576
36	0x3ffa8ac9	1.9573604
37	0x40d7d0fd	6.7442613
38	0xc142aa4b	-12.166575
39	0x413150bc	11.082211
40	0xc09714fd	-4.721312
41	0x411c9dfb	9.788569
42	0x414c98f2	12.78734
43	0x3d0b8c64	0.034069434
44	0x40a302cc	5.0940914
45	0x412e18c6	10.881048
46	0x416dbaed	14.858136
47	0x40a6ec85	5.216372
48	0x4110064f	9.00154
49	0xbdc287d4	-0.094985634
50	0xbd864cc5	-0.065576114
51	0xbdfdeba8	-0.123984635
52	0x400483d5	2.0705464
53	0x415040d3	13.015826
54	0x4156f8f9	13.435784
55	0x414946af	12.579757
56	0x413a5ad4	11.647175
57	0x4123d7a5	10.240148
58	0xbc291193	-0.010319131
59	0x40cbad2c	6.364889
60	0xbd3da40e	-0.046299033
61	0x3d383242	0.044969805
62	0x3d8ac774	0.06776324
63	0x41a81498	21.010056
64	0x414d3461	12.825288
65	0xbd045c5d	-0.032314647
66	0x40deed14	6.96644
67	0x414ac3e8	12.672829
68	0x4148e9b2	12.5570545
69	0xbd772e50	-0.0603469
70	0xbce909bf	-0.02844703
71	0x41768bb4	15.409107
72	0xc102f6fa	-8.185297
73	0x3c444d8a	0.011981377
74	0x3e8c9710	0.27459002
75	0x413a025b	11.625575
76	0x41277eee	10.468489
77	0x417d7822	15.841829
78	0xc039a57d	-2.9007256
79	0xbd55a5be	-0.052160017
80	0x3e3dc63d	0.18532653
81	0x3c4fd477	0.012684933
82	0x40b30012	5.5937586
83	0xc06d5373	-3.7082183
84	0x3cd1eed5	0.02562658
85	0x4071c294	3.777501
86	0xc0ad0746	-5.407138
87	0x3d903c5b	0.07042762
88	0x41033d46	8.202459
89	0xbd9e0224	-0.07715252
90	0x4154e01f	13.304717
91	0xbc2923c2	-0.010323467
92	0xbd1b53bb	-0.03792165
93	0x413505ca	11.313913
94	0x413f36be	11.950865
95	0x41688c01	14.534181
96	0x40f10ed1	7.5330586
97	0x41300b19	11.002709
98	0x41405704	12.021244
99	0xc0fec329	-7.9613233
100	0x40699b8c	3.6501188
101	0x417ad37f	15.676635
102	0x40117bdc	2.2731848
103	0x416f4f05	14.956792
104	0x4154a20d	13.289563
105	0x41588704	13.532963
106	0x411ebe79	9.921502
107	0xbd31c0bc	-0.043396696
108	0xc0a5aa22	-5.177018
109	0x416bb3f3	14.731433
110	0xc166c4c3	-14.423038
111	0x40ff397d	7.9757676
112	0x416968df	14.588103
113	0x3d90b9c3	0.07066681
114	0x3dc5d2a4	0.09659317
115	0xbd5bcab1	-0.0536601
116	0x407be8a4	3.9360743
117	0x4160b797	14.044822
118	0x414b8ee6	12.722387
119	0x415f03c3	13.938418
120	0x41556c85	13.338994
121	0x412a8e1f	10.659698
122	0xbd873293	-0.06601443
123	0x40ebaf63	7.3651595
124	0xbd1fee01	-0.039045338
125	0xbd2e4944	-0.04255034
126	0xbd264e25	-0.04060187
127	0xc0bfb645	-5.9909997

fc3.bias f4 [2]
0	0x402574bb	2.5852497
1	0x409d6e4d	4.9197145
